model.npy (npy, 24128 bytes, 1 tensors)

array f8 [500, 6]
00000000: 0000 0000 0000 0000 0000 0000 0000 0000
00000010: 0000 0000 0000 0000 0000 0000 0000 0000
00000020: 0000 0000 0000 0000 0000 0000 0000 0000
00000030: 3eb3 5d11 a943 1340 ad14 2df5 dafb 1740
00000040: 2781 42e0 a843 1340 90f2 a152 d9fb 1740
00000050: 8cf5 ef3b 6bd9 1c40 065d 9c95 4908 08c0
00000060: ec0c 8db4 a684 2340 f462 b48e 052f 2640
00000070: 2ee8 95c5 a684 2340 4234 eba8 052f 2640
00000080: ee59 cf43 7fee 2840 48f6 ac8c 16bc 0040
00000090: 55bd da1a dbfb 1740 abe6 c435 6bd9 1c40
000000a0: 06a4 9a07 dbfb 1740 46b8 9ded 6ad9 1c40
000000b0: 7c27 2f83 c0ee 2040 82dd 4e51 539a fcbf
000000c0: fa6f 8204 ab5c 15c0 0bca ad8b 7b4c 14c0
000000d0: d53d 12e1 25e5 f8bf b9cc d3f8 1e00 15c0
000000e0: ecad 05cd 9701 24c0 4ee2 1200 56dc 23c0
000000f0: 0000 0000 0000 0000 0000 0000 0000 0000
00000100: 0000 0000 0000 0000 0000 0000 0000 0000
00000110: 0000 0000 0000 0000 0000 0000 0000 0000
00000120: e3e8 47a3 e2e6 0cc0 ae83 cbb2 013e 12c0
00000130: 5a41 12e1 25e5 f8bf 56ad d43a bb59 18c0
00000140: 759f 672e 25be 22c0 7422 a371 7676 22c0
00000150: a971 1e77 edc0 f73f 82a1 e3ec d726 06c0
00000160: cf50 3900 cf25 09c0 1294 81e3 67d0 febf
00000170: e5e9 2374 3d57 1dc0 34db 6794 a0b7 1dc0
00000180: 8cf5 ef3b 6bd9 1c40 53f8 4757 07b9 fb3f
00000190: 2426 e151 f7d8 08c0 e0d5 86e8 f1d7 bd3f
000001a0: dedd d0e0 6d91 10c0 c859 b1d0 17f7 0ec0
000001b0: d07c a3c6 d67d 0440 5edd cc88 53cc fcbf
000001c0: 1940 b101 983e 08c0 4b32 0fd9 1077 05c0
000001d0: 115c 2d2f 5d74 1fc0 04d9 34be e687 1cc0
000001e0: 0000 0000 0000 0000 0000 0000 0000 0000
000001f0: 0000 0000 0000 0000 0000 0000 0000 0000
00000200: 0000 0000 0000 0000 0000 0000 0000 0000
00000210: 6464 17ef 6b5f 0d40 6692 e270 2d27 e1bf
00000220: bdaa 73c6 1975 e0bf ca30 7031 cac0 db3f
00000230: 3afd bfc3 d6e9 1ac0 4023 8ddb b312 1dc0
00000240: 4807 f1c3 ff29 dc3f 2717 1916 2c03 10c0
00000250: eab9 f323 8c04 12c0 8fe6 14dd e592 09c0
00000260: 7de5 c33f 7501 25c0 14ea e66e f488 20c0
00000270: 7d7d a3c6 d67d 0440 52f3 dcf0 8f49 00c0
00000280: 9752 83ce 2c4f f2bf 4e9c 2f93 67cd edbf
00000290: 5b1c 3ce1 6470 1ec0 a3e3 f2ba 04c7 1bc0
000002a0: 3107 f1c3 ff29 dc3f 7ed8 f7cb f0c7 12c0
000002b0: 165e 87d7 2700 09c0 f927 4a94 7915 06c0
000002c0: 1a25 4b3a ead4 20c0 24ed b5b6 b59b 22c0
000002d0: 0000 0000 0000 0000 0000 0000 0000 0000
000002e0: 0000 0000 0000 0000 0000 0000 0000 0000
000002f0: 0000 0000 0000 0000 0000 0000 0000 0000
00000300: 0002 2b87 16d9 3040 5e66 6666 6666 3240
00000310: 0002 2b87 16d9 3040 5e66 6666 6666 3240
00000320: c0cc cccc cccc 2240 fcff ffff ffff 3340
00000330: 20fb b848 c0ee 2040 5538 4398 6ad9 1c40
00000340: 7c27 2f83 c0ee 2040 1ca5 9b2b 6bd9 1c40
00000350: 3285 fcc5 549a fcbf e4eb b8ee d9fb 1740
00000360: b69e a39f bac3 2b40 1742 7019 7fee 2840
00000370: 11a3 ea11 032f 2640 9bbc 4e33 7fee 2840
00000380: afe9 9e07 fcb9 0b40 e78c 0e51 052f 2640
00000390: a693 635f a684 2340 0eed d459 c0ee 2040
000003a0: ba28 dccb a684 2340 c795 5d50 c0ee 2040
000003b0: ce8e e72f f813 e1bf 4b64 82fa 6ad9 1c40
000003c0: 0000 0000 0000 0000 0000 0000 0000 0000
000003d0: 0000 0000 0000 0000 0000 0000 0000 0000
000003e0: 0000 0000 0000 0000 0000 0000 0000 0000
000003f0: b4e5 6385 8fc9 e43f 6acf 683d c3c1 e53f
00000400: 0902 74dd aef6 de3f c447 9437 dbfb 1740
00000410: 2557 2602 fadf 13c0 3a5c 94fc 16d1 11c0
00000420: 388b 392e 2a27 1440 9eb5 8695 64b5 1740
00000430: cf62 fb0a 1431 1440 fa0c dbaf 052f 2640
00000440: b542 ff22 57a6 d7bf 36e8 188a 053f c5bf
00000450: 2e72 4133 f0d2 fc3f 2fe1 fc8b 3636 0c40
00000460: 7b39 7813 c129 f53f 8cf5 ef3b 6bd9 1c40
00000470: 3b35 79ec 9e1a 0bc0 b61f e375 7f1c 0cc0
00000480: a242 8783 2657 e2bf 5826 e58d 4bf9 10c0
00000490: 763f 86c4 d8f6 03c0 41e2 3e23 af0c 11c0
000004a0: 413d b4c9 883a 23c0 f9dd 12d5 1995 22c0
000004b0: 0000 0000 0000 0000 0000 0000 0000 0000
000004c0: 0000 0000 0000 0000 0000 0000 0000 0000
000004d0: 0000 0000 0000 0000 0000 0000 0000 0000
000004e0: a242 8783 2657 e2bf 0a22 bbdc 31d9 09c0
000004f0: 5a8d e1df 44e6 08c0 6a12 e0dd 36ab 0ac0
00000500: d715 270f cb35 23c0 3fe9 fc86 0133 24c0
00000510: 867d a3c6 d67d 0440 63f4 b26e 08d2 12c0
00000520: 4481 a666 15c6 0bc0 292d f3cb bf16 03c0
00000530: 37c9 cbd5 2e9b 1cc0 6568 6c82 bd22 1ac0
00000540: c447 9437 dbfb 1740 7876 4458 ca15 b8bf
00000550: a1ed 76ae 56d3 fa3f 9bde aa8f 66ae f93f
00000560: 48a0 eb0f 2c6d 11c0 8a5f 44c1 d36b 12c0
00000570: 2073 1e77 edc0 f73f 43e2 2206 2e16 11c0
00000580: 410f 4911 f59e 02c0 ed7a 9661 c9c1 15c0
00000590: 7034 6166 4a2b 1cc0 0111 b3da 7536 20c0
000005a0: 0000 0000 0000 0000 0000 0000 0000 0000
000005b0: 0000 0000 0000 0000 0000 0000 0000 0000
000005c0: 0000 0000 0000 0000 0000 0000 0000 0000
000005d0: 70c1 80f0 7a40 09c0 5803 ccf0 bf12 05c0
000005e0: da32 ebd9 8f54 08c0 867d a3c6 d67d 0440
000005f0: 8581 7d25 c9b7 1bc0 1887 91b0 2853 20c0
00000600: c66f 1e77 edc0 f73f 61a5 b689 f498 0ec0
00000610: 8e46 11ff 2a01 02c0 aa7e 7ee5 daa8 0ac0
00000620: 9883 34a9 b1d0 1cc0 7dac f790 9b70 1fc0
00000630: aa63 17ef 6b5f 0d40 4515 2223 4643 f0bf
00000640: cc07 521e 46a4 f5bf 4d7f be3b fef4 0cc0
00000650: 9469 f930 e85a 1ac0 20b2 1119 467b 19c0
00000660: 7773 1e77 edc0 f73f 5471 23f8 437f 08c0
00000670: 7d39 2546 c585 13c0 bdcc bd1f afd0 05c0
00000680: add4 92b0 1ace 1fc0 7de1 ead4 c353 1ec0
00000690: 0000 0000 0000 0000 0000 0000 0000 0000
000006a0: 0000 0000 0000 0000 0000 0000 0000 0000
000006b0: 0000 0000 0000 0000 0000 0000 0000 0000
000006c0: f824 731f c594 1440 8f51 ce68 eaa6 1640
000006d0: 91ea e75c 3f20 1b40 5e66 6666 6666 3240
000006e0: 225b d9eb 7e44 1440 551b c95a 0aec 1240
000006f0: ba28 dccb a684 2340 1ea1 a777 c0ee 2040
00000700: 5083 8146 c0ee 2040 bf63 52d7 6ad9 1c40
00000710: 7319 061f f813 e1bf 0492 e82c f813 e1bf
00000720: 6b27 f9ab 5ad8 0b40 b0e8 7af3 b553 b03f
00000730: 76a8 d3ef 7d21 0740 b926 8a19 7fee 2840
00000740: c1ca a145 b6f3 ffbf 5c9e fa91 2527 f8bf
00000750: fa0c dbaf 052f 2640 3f37 53b0 a684 2340
00000760: c46e a69f a684 2340 30f9 2904 c0ee 2040
00000770: 021a d8ad 6c4a e83f 1724 9a9f 6c4a e83f
00000780: 0000 0000 0000 0000 0000 0000 0000 0000
00000790: 0000 0000 0000 0000 0000 0000 0000 0000
000007a0: 0000 0000 0000 0000 0000 0000 0000 0000
000007b0: 2007 f1c3 ff29 dc3f ec73 2d04 d9be 10c0
000007c0: e182 9665 a91d 13c0 84f9 768d 9d84 02c0
000007d0: e8ca 4dfd 5da6 24c0 cd2e 07f7 453e 22c0
000007e0: 1e31 df1e a943 1340 a200 0901 f449 fdbf
000007f0: 5aa8 9537 d924 f0bf 7c3c 6eee f59f d8bf
0.0 0.0 0.0 0.0 0.0 0.0 4.816074630111698 5.995952444912445
4.816073898371804 5.995946208128444 7.212323128243394 -3.0040466011374773 9.759084360330654 11.091839274902192 9.759084868001164 11.091840056144182
12.465814703999936 2.091839884785063 5.995953006363682 7.2123230363301145 5.995952719510575 7.212321961165861 8.466312503343708 -1.7876771141144165
-5.340496130429523 -5.074690039140942 -1.5559443275304734 -5.25011814873431 -10.003111273711475 -9.930343630128075 0.0 0.0
0.0 0.0 0.0 0.0 -3.612736964828501 -4.560553353950054 -1.5559443275306735 -6.087628287535457
-9.371377420567777 -9.231372405208482 1.484601464565552 -2.7689665324180064 -3.1434612290850974 -1.9258803259811015 -7.335195364658351 -7.429323500479587
7.212323128243394 1.7326730164927724 -3.105940475162031 0.11657630850716982 -4.142020714519701 -3.870650892650904 2.561444808830494 -1.7998843520889163
-3.030563367101433 -2.6831376035463896 -7.8636367198405575 -7.132716152167863 0.0 0.0 0.0 0.0
0.0 0.0 3.671592586423275 -0.5360324101244032 -0.5142945171367824 0.43364195659593163 -6.728358324616517 -7.268264227380143
0.4400634206286793 -4.0030978634656895 -4.504440843344563 -3.196727492523514 -10.502847664511814 -8.267489877403058 2.561444808830571 -2.0359190766743405
-1.144329840365719 -0.9313238024450443 -7.609759825986738 -6.944353982043057 0.44006342062867804 -4.695254504205989 -3.1250759924112215 -2.7604858002787265
-8.415849515603032 -9.304120740611843 0.0 0.0 0.0 0.0 0.0 0.0
16.847999999999956 18.39999999999997 16.847999999999956 18.39999999999997 9.399999999999977 19.999999999999986 8.46631076105183 7.212320689299379
8.466312503343708 7.212322884917082 -1.7876785024494208 5.99594853404685 13.882283199999943 12.465813441232099 11.091820297138414 12.465814212190073
3.465812739884505 11.09183743765466 9.759081822305074 8.46631127094454 9.759085054993523 8.466310988830527 -0.5336876807818614 7.212322153290255
0.0 0.0 0.0 0.0 0.0 0.0 0.6496045689847763 0.6799026679422984
0.4838063395145871 5.995953434396089 -4.968727143850434 -4.454189249568168 5.0382468435880625 5.927141510340702 5.047928020089514 11.09184026287993
-0.36952761094748193 -0.1659857677748861 1.8014986040281076 3.5264712273166405 1.3226938972980793 7.212323128243394 -3.3879984354486203 -3.5139149866044717
-0.5731384819901744 -4.243452279196923 -2.4955306390256125 -4.262386847222445 -9.614324858905663 -9.291212709954367 0.0 0.0
0.0 0.0 0.0 0.0 -0.5731384819901744 -3.2310521359070252 -3.112436055250936 -3.3336007436758353
-9.605064843674809 -10.09962102734846 2.561444808830575 -4.705110292122387 -3.4717205066264416 -2.3861080106340933 -7.151545849383459 -6.533926046244322
5.995953434396089 -0.0940824952599203 1.6765963377973565 1.6050782787332654 -4.3566133964123495 -4.605299968527001 1.4846014645656354 -4.271659942511692
-2.327615866701223 -5.439244770822126 -7.042276000674164 -8.106367906912512 0.0 0.0 0.0 0.0
0.0 0.0 -3.156484488419828 -2.634155160165772 -3.041289999475663 2.561444808830575 -6.929478250298762 -8.162419812931645
1.4846014645654448 -3.8246851691116466 -2.2505702902934166 -3.3324487618663925 -7.203802722768977 -7.859968438259895 3.671592586423192 -1.016424309958283
-1.3526059326545576 -3.61962553668119 -6.588776364539076 -6.370384589867655 1.4846014645656547 -3.0621413598839045 -4.8806353531093665 -2.7268965225026407
-7.951273688279952 -7.581801726184833 0.0 0.0 0.0 0.0 0.0 0.0
5.145283213999612 5.663003575890243 6.781491710333868 18.39999999999997 5.066890416280133 4.730508249783118 9.759085054993523 8.46631215974099
8.466310694989858 7.212321628955521 -0.5336876493391131 -0.5336876752012931 3.4806416926775703 0.06377732462252328 2.8913534866779242 12.465813444246452
-1.997 -1.5095573141387808 11.09184026287993 9.759084234388522 9.759083737436761 8.466308717845635 0.7590850253480428 0.7590849988201879
0.0 0.0 0.0 0.0 0.0 0.0 0.4400634206286771 -4.186374726556988
-4.778966510116079 -2.3147536327298344 -10.324935832735221 -9.121627540232476 4.816074831364203 -1.8305549660144966 -1.0089962168954316 -0.38476322445143984
