model.npy (npy, 24128 bytes, 1 tensors)

array f8 [500, 6]
000000 00 00 00 00 00 00 00 00 00 00 00 00 00 00 00 00
       0.0 0.0
000010 00 00 00 00 00 00 00 00 00 00 00 00 00 00 00 00
       0.0 0.0
000020 00 00 00 00 00 00 00 00 00 00 00 00 00 00 00 00
       0.0 0.0
000030 18 2a 45 13 a9 43 13 40 ac 6f a7 18 db fb 17 40
       4.816074658485853 5.995952973575111
000040 62 d8 91 ec a8 43 13 40 c6 04 0c 1b db fb 17 40
       4.816074081803977 5.995953009232101
000050 8c f5 ef 3b 6b d9 1c 40 5b e7 e9 b9 49 08 08 c0
       7.212323128243394 -3.0040468716151003
000060 e5 3f 01 c6 a6 84 23 40 ba 12 a0 8d 05 2f 26 40
       9.759084880497491 11.09183924273508
000070 9d f2 68 9d a6 84 23 40 b4 73 65 66 05 2f 26 40
       9.759083670674324 11.091838073620103
000080 ee 59 cf 43 7f ee 28 40 c2 eb 33 53 16 bc 00 40
       12.465814703999936 2.0918394565792093
000090 b3 0f c4 d5 d8 fb 17 40 da 06 e1 6d 6a d9 1c 40
       5.99594434746898 7.212320057735008
0000a0 10 81 23 6d da fb 17 40 0d 59 2c f1 6a d9 1c 40
       5.99595041779709 7.212322014171389
0000b0 7c 27 2f 83 c0 ee 20 40 a4 48 b4 49 53 9a fc bf
       8.466312503343708 -1.7876770857879274
0000c0 0c 3e 12 e1 25 e5 f8 bf 57 eb 3c 4d c5 67 10 c0
       -1.5559443275304856 -4.10133858379671
0000d0 64 66 8c 38 f8 b5 18 c0 b3 de 10 c4 5b ab 0e c0
       -6.177704700059255 -3.833671123280362
0000e0 c8 f6 fa 22 26 8a 23 c0 64 35 77 03 bd 94 24 c0
       -9.769822209487202 -10.290504558851076
0000f0 00 00 00 00 00 00 00 00 00 00 00 00 00 00 00 00
       0.0 0.0
000100 00 00 00 00 00 00 00 00 00 00 00 00 00 00 00 00
       0.0 0.0
000110 00 00 00 00 00 00 00 00 00 00 00 00 00 00 00 00
       0.0 0.0
000120 8a c8 30 73 bb c3 10 c0 f8 9a fc 4c 22 64 14 c0
       -4.191144752361774 -5.097787096898848
000130 dc 3d 12 e1 25 e5 f8 bf a4 b9 62 47 2f 38 15 c0
       -1.555944327530475 -5.30486785450049
000140 d7 a3 28 30 68 00 24 c0 b2 60 52 5b 38 ba 24 c0
       -10.000794892273843 -10.363711217695116
000150 80 73 1e 77 ed c0 f7 3f 5c 7a ac 38 cd 30 0c c0
       1.4846014645656567 -3.5238289287220095
000160 a7 44 08 a6 ad 28 f9 bf af 42 e2 2e c4 88 01 c0
       -1.5724312291752456 -2.1917804396437854
000170 e7 8f 11 31 11 8c 20 c0 bf 29 ad 05 04 b0 1e c0
       -8.273568662065328 -7.671890343374286
000180 8c f5 ef 3b 6b d9 1c 40 28 78 9d 5f e5 e0 fc bf
       7.212323128243394 -1.8049062476125162
000190 1e 23 40 5d 5e a7 f9 bf 50 64 e1 d2 cd 22 c7 3f
       -1.6033614771460587 0.18074963375946362
0001a0 82 e0 17 6d 6a e8 0e c0 31 8e c1 e2 3b 43 0c c0
       -3.863484241763275 -3.5328290667837554
0001b0 7b 7d a3 c6 d6 7d 04 40 3a 1c 00 99 a2 d8 f7 bf
       2.56144480883057 -1.490389440210278
0001c0 f1 b1 15 b1 c3 f9 f8 bf b6 23 fa 1b b0 24 fd bf
       -1.560977641808787 -1.8214570134025343
0001d0 46 90 59 1a 48 37 1e c0 9a c6 49 18 de b3 1e c0
       -7.553985988346602 -7.675651912215153
0001e0 00 00 00 00 00 00 00 00 00 00 00 00 00 00 00 00
       0.0 0.0
0001f0 00 00 00 00 00 00 00 00 00 00 00 00 00 00 00 00
       0.0 0.0
000200 00 00 00 00 00 00 00 00 00 00 00 00 00 00 00 00
       0.0 0.0
000210 4f 64 17 ef 6b 5f 0d 40 32 c3 86 27 25 2c 06 c0
       3.6715925864232655 -2.7715552413941618
000220 30 31 9e ad 27 5a f7 bf ea 56 9e 36 9a 46 dd 3f
       -1.45951049632556 0.45743422826613644
000230 a1 3d d2 d2 b6 0f 18 c0 cb 9b 6f d8 b0 db 1b c0
       -6.015345853883816 -6.9645417993660415
000240 30 f9 12 bc ea 0b 07 c0 f6 5c ae fb 59 d0 07 c0
       -2.8808188145914286 -2.976734129198685
000250 e6 05 f1 c3 ff 29 dc 3f ef ea 0e 36 b9 bd 13 c0
       0.44006342062865966 -4.93527683702517
000260 e1 16 55 ad 6b 72 21 c0 b9 2a cc 5c de 6e 23 c0
       -8.723477760922323 -9.71654024116775
000270 86 7d a3 c6 d6 7d 04 40 46 e8 cb ef 4d 41 f9 bf
       2.561444808830575 -1.5784434668589866
000280 05 a0 6d e5 98 20 02 c0 f8 03 78 0f 83 7f 04 c0
       -2.265916626365654 -2.5622616966725182
000290 82 a1 ea ad ff 43 1c c0 b2 8a 85 ce 8c 8c 1b c0
       -7.066405026860936 -6.887255885029548
0002a0 49 07 f1 c3 ff 29 dc 3f 29 ef 1c f9 b1 8d 06 c0
       0.44006342062867937 -2.819187112994673
0002b0 1f 8f 3e a4 c6 e9 05 c0 0a 9e 60 b0 66 14 04 c0
       -2.7391484099952232 -2.5099614886746666
0002c0 70 ce b3 09 b3 cd 1f c0 f3 ce e2 ef 27 11 1f c0
       -7.950878287887107 -7.766753910272871
0002d0 00 00 00 00 00 00 00 00 00 00 00 00 00 00 00 00
       0.0 0.0
0002e0 00 00 00 00 00 00 00 00 00 00 00 00 00 00 00 00
       0.0 0.0
0002f0 00 00 00 00 00 00 00 00 00 00 00 00 00 00 00 00
       0.0 0.0
000300 00 02 2b 87 16 d9 30 40 5e 66 66 66 66 66 32 40
       16.847999999999956 18.39999999999997
000310 00 02 2b 87 16 d9 30 40 5e 66 66 66 66 66 32 40
       16.847999999999956 18.39999999999997
000320 c0 cc cc cc cc cc 22 40 fc ff ff ff ff ff 33 40
       9.399999999999977 19.999999999999986
000330 7c 27 2f 83 c0 ee 20 40 09 ba 62 40 67 d9 1c 40
       8.466312503343708 7.212307935739326
000340 3e b1 bf 81 bf ee 20 40 27 fe 8c de 6a d9 1c 40
       8.466304831170984 7.212321736674801
000350 68 99 5a 22 53 9a fc bf ed bd 6a e7 da fb 17 40
       -1.7876769391965244 5.995952239885338
000360 b6 9e a3 9f ba c3 2b 40 2e 01 25 40 7f ee 28 40
       13.882283199999943 12.465814594762005
000370 94 f5 3c c9 03 2f 26 40 09 6c dd 3e 7f ee 28 40
       11.091825760546989 12.465814556626372
000380 c2 94 85 e2 fb b9 0b 40 00 0d 3b 76 05 2f 26 40
       3.465812463475772 11.091838545521114
000390 ba 28 dc cb a6 84 23 40 9a 3a e9 52 c0 ee 20 40
       9.759085054993523 8.466311064691855
0003a0 8c 83 10 92 a6 84 23 40 f8 d3 38 6a c0 ee 20 40
       9.759083332553722 8.466311759411823
0003b0 5c 91 b6 4a f9 13 e1 bf 38 8a 1a 70 69 d9 1c 40
       -0.5336882075539893 7.212316276187771
0003c0 00 00 00 00 00 00 00 00 00 00 00 00 00 00 00 00
       0.0 0.0
0003d0 00 00 00 00 00 00 00 00 00 00 00 00 00 00 00 00
       0.0 0.0
0003e0 00 00 00 00 00 00 00 00 00 00 00 00 00 00 00 00
       0.0 0.0
0003f0 41 02 0b b8 04 79 f3 3f 95 ff 77 a8 0b 31 fb 3f
       1.2170455159358797 1.6994740086374567
000400 42 4d 0e 00 4f e7 fa 3f c4 47 94 37 db fb 17 40
       1.6814718248541145 5.995953434396089
000410 c2 8d 49 f6 b5 95 11 c0 0d 3d 11 84 d5 1e 12 c0
       -4.396201942672123 -4.530111373474267
000420 11 1b 56 e9 95 a9 15 40 96 3c 15 e7 b5 33 20 40
       5.415610929375149 8.1009971822189
000430 c2 58 1a 35 8c 11 16 40 fa 0c db af 05 2f 26 40
       5.517136411412311 11.09184026287993
000440 06 d7 26 cb 8f 83 f7 bf b4 c6 87 7f 19 a2 a7 bf
       -1.4696195541013721 -0.046158596818611924
000450 f0 3e 1d ce 2e 97 f7 3f 22 e0 bc 37 1b 0e ff 3f
       1.4744098712289393 1.94094392559601
000460 cb a0 2c 3f 6d 42 f9 3f 8c f5 ef 3b 6b d9 1c 40
       1.5787174670932014 7.212323128243394
000470 40 86 e0 b8 e8 76 0d c0 b4 7e f5 39 94 ef 0b c0
       -3.683061069824163 -3.491981938175593
000480 ad 42 87 83 26 57 e2 bf fc 9c 46 f6 cc 38 13 c0
       -0.5731384819901756 -4.805469368038072
000490 03 b2 88 61 de 8d 0f c0 d2 94 0d 5f 7c 94 12 c0
       -3.944271814331161 -4.645005688861788
0004a0 48 62 91 08 1b bc 23 c0 99 a9 dd 5c 53 16 21 c0
       -9.867393748995838 -8.543604757364664
0004b0 00 00 00 00 00 00 00 00 00 00 00 00 00 00 00 00
       0.0 0.0
0004c0 00 00 00 00 00 00 00 00 00 00 00 00 00 00 00 00
       0.0 0.0
0004d0 00 00 00 00 00 00 00 00 00 00 00 00 00 00 00 00
       0.0 0.0
0004e0 a2 42 87 83 26 57 e2 bf 1a c6 4e 54 74 66 05 c0
       -0.5731384819901744 -2.6750265680827967
0004f0 fc 3d 82 00 02 ab 06 c0 40 7a aa bd 21 d5 0b c0
       -2.8334999122378104 -3.479068261876165
000500 42 da 8b bf b6 f1 24 c0 24 b7 6c bb 72 fc 23 c0
       -10.472097383329245 -9.993062836666986
000510 86 7d a3 c6 d6 7d 04 40 06 9f fd 42 dd 27 f1 bf
       2.561444808830575 -1.0722324959587595
000520 a1 0f 92 70 48 46 ee bf 75 74 c6 6b ba 16 06 c0
       -0.9460794638293814 -2.761097757333625
000530 39 5f f9 98 b3 79 1d c0 b0 41 29 88 30 06 20 c0
       -7.368849172802407 -8.012089018856244
000540 bb 47 94 37 db fb 17 40 f4 c7 59 23 1f 12 de bf
       5.995953434396081 -0.4698560567113639
000550 e6 a2 db cc b3 0d ef 3f b2 01 c1 74 dd 3b f7 3f
       0.9704226494914934 1.4521154938412164
000560 fc d8 62 54 ee c8 15 c0 f9 53 0c ef b4 97 12 c0
       -5.446221655400446 -4.648151145102923
000570 55 73 1e 77 ed c0 f7 3f 9f ec bb cb 26 3c 16 c0
       1.4846014645656471 -5.55874174437045
000580 61 ad eb ba 99 0a 05 c0 a6 0b 7e 88 78 db 0a c0
       -2.6301760295079224 -3.3571634925333056
000590 84 42 f6 33 86 8b 1d c0 98 67 73 33 c6 7d 20 c0
       -7.386254131227023 -8.2456527784705
0005a0 00 00 00 00 00 00 00 00 00 00 00 00 00 00 00 00
       0.0 0.0
0005b0 00 00 00 00 00 00 00 00 00 00 00 00 00 00 00 00
       0.0 0.0
0005c0 00 00 00 00 00 00 00 00 00 00 00 00 00 00 00 00
       0.0 0.0
0005d0 86 7d a3 c6 d6 7d 04 40 6e 77 cc cf 14 d4 01 c0
       2.561444808830575 -2.228555320193599
0005e0 21 77 cb c0 15 e1 fe bf a4 13 fb 33 3b e7 ef bf
       -1.9299523860021923 -0.9969764724015602
0005f0 95 0d 22 d9 01 2e 1a c0 85 c6 0b 5a 96 bd 1e c0
       -6.544928925231393 -7.685143858879774
000600 80 73 1e 77 ed c0 f7 3f bb c6 58 22 07 03 02 c0
       1.4846014645656567 -2.2514784510939
000610 b0 a0 74 ba 40 ee d8 bf c1 eb d4 11 d1 80 f7 bf
       -0.3895417996268504 -1.468949384360471
000620 41 26 9a 90 a5 31 21 c0 eb af 8d c4 b9 f3 1f c0
       -8.596966284577436 -7.988013335369014
000630 64 64 17 ef 6b 5f 0d 40 ee bd 3d 10 8c 1e fa bf
       3.671592586423275 -1.6324577936574047
000640 42 da 27 c0 3a 1c fa bf b5 29 39 ef 43 e2 01 c0
       -1.63189196644602 -2.235481137210821
000650 3e f3 b7 94 72 b0 1a c0 7b e1 e2 16 ea 3a 19 c0
       -6.672312091567447 -6.307533605191902
000660 56 70 1e 77 ed c0 f7 3f cf 66 81 5a db a7 0e c0
       1.4846014645654768 -3.8319613524189218
000670 7e ff 69 3d f0 a2 05 c0 83 45 a1 f2 9c 24 0c c0
       -2.7045597837422397 -3.5178774791208425
000680 90 20 6e 1e 53 d4 1f c0 e2 24 e1 50 5b 55 1e c0
       -7.957348323318129 -7.583356155149177
000690 00 00 00 00 00 00 00 00 00 00 00 00 00 00 00 00
       0.0 0.0
0006a0 00 00 00 00 00 00 00 00 00 00 00 00 00 00 00 00
       0.0 0.0
0006b0 00 00 00 00 00 00 00 00 00 00 00 00 00 00 00 00
       0.0 0.0
0006c0 94 33 0e 02 de 6c 18 40 98 db 31 da f8 a5 16 40
       6.106315643421926 5.6620821087771205
0006d0 36 85 cc fa cf 4e 21 40 5e 66 66 66 66 66 32 40
       8.653930509057869 18.39999999999997
0006e0 7b f4 35 73 9e 2a 09 40 a1 55 b5 3f f7 89 11 40
       3.1458100319710502 4.384732242052821
0006f0 b4 e0 28 c3 a6 84 23 40 4f 2f a2 60 e8 ce 00 40
       9.75908479570385 2.1010291623587487
000700 a2 83 45 fe 25 65 d7 bf 5c 40 c2 32 06 7e f7 bf
       -0.36554860907750186 -1.4682676298871433
000710 dd db 0d f4 ed f1 01 c0 6a b9 e4 a8 fc 5c fb bf
       -2.2431296412209876 -1.7102018926048808
000720 9a 91 f1 2d 7f ee 28 40 7d 54 36 7d be cf 0a 40
       12.46581405233228 3.351437547894021
000730 dc ac 4a 81 3d c2 0e 40 9c 72 27 7c e5 4a 1a 40
       3.844843874064834 6.573141040713974
000740 44 f9 0a 1c 7b 74 f2 bf 78 2f 6c 6f 96 76 ed bf
       -1.1534377189087346 -0.9207260299894946
000750 f0 0a db af 05 2f 26 40 1a 1e 03 b9 a6 60 05 40
       11.091840262879003 2.672192998321191
000760 2a d9 f0 cb 10 d2 e2 3f c5 fb 25 0d f5 42 04 40
       0.5881427748888985 2.5326939608780514
000770 5d 9b c6 44 dc 02 f4 bf 8d 98 dd 6c f9 17 fb bf
       -1.2506983458094603 -1.6933531048357822
000780 00 00 00 00 00 00 00 00 00 00 00 00 00 00 00 00
       0.0 0.0
000790 00 00 00 00 00 00 00 00 00 00 00 00 00 00 00 00
       0.0 0.0
0007a0 00 00 00 00 00 00 00 00 00 00 00 00 00 00 00 00
       0.0 0.0
0007b0 cc 07 f1 c3 ff 29 dc 3f 8a 80 22 a5 1e 23 05 c0
       0.44006342062868664 -2.6421482945589263
0007c0 f4 52 d8 aa e0 c8 14 c0 94 b6 51 ff fe bc 06 c0
       -5.196169537976619 -2.8422832438289536
0007d0 a9 82 0e 4b bd 70 21 c0 7c 61 71 d6 10 1a 21 c0
       -8.720194192429817 -8.550909711208753
0007e0 ef 30 df 1e a9 43 13 40 08 78 11 89 d7 61 a3 3f
       4.816074831364161 0.03785584972568762
0007f0 4c 73 a0 a0 21 67 05 c0 72 e7 02 7d fd 60 e6 bf
       -2.675357108017499 -0.699339622652799
